model.pt (torch, 104564 bytes, 6 tensors)

conv1.0.weight f4 [16, 1, 5, 5]
0	0xbe468d67	-0.19389878
1	0xbe113ac8	-0.1418258
2	0xbe77ed8b	-0.24211709
3	0xbe59fe09	-0.21288313
4	0xbd959be5	-0.07305125
5	0x3e04eb94	0.12980491
6	0x3badd4d4	0.005304912
7	0xbe202e7c	-0.15642732
8	0x3e463fda	0.19360295
9	0x3dd2487e	0.10267733
10	0x3e4d962b	0.20076816
11	0x3c9b5050	0.018959194
12	0xbd86a2d6	-0.06574027
13	0x3da242db	0.07922908
14	0x3e2d7441	0.16938879
15	0xbd07722f	-0.03306788
16	0x3ca605bf	0.020266412
17	0x3e694ce8	0.22783244
18	0xbbb32bb8	-0.005467858
19	0x3d812991	0.06306756
20	0x3dfb4926	0.12269811
21	0x3d5f3587	0.054494407
22	0x3e013366	0.12617263
23	0x3df539d9	0.11973924
24	0x3e780062	0.24218896
25	0x3d93eb87	0.07222658
26	0xbdf8c6fd	-0.12147329
27	0x3e2d9653	0.16951875
28	0xbdf02233	-0.11725273
29	0xbe4d0ae6	-0.20023689
30	0x3e349fb9	0.17639054
31	0xbdd6a5e7	-0.10480862
32	0x3e186eeb	0.14886062
33	0xbe1622c4	-0.146617
34	0xbe43048f	-0.19044708
35	0x3cf22148	0.029556885
36	0x3e04e4fd	0.12977977
37	0xbd169542	-0.036763437
38	0xbd9be9e8	-0.076129735
39	0xbe44dc0c	-0.19224566
40	0x3cc166f2	0.023608658
41	0x3e8e2c45	0.2776815
42	0xbd008dc9	-0.031385217
43	0x3d701893	0.058617186
44	0xbdea409d	-0.11438105
45	0x3e858feb	0.26086363
46	0x3ce629f4	0.028096177
47	0x3da807df	0.08204626
48	0x3decdf88	0.11566073
49	0x3e448c0c	0.19194049
50	0x3e18b4d3	0.14912729
51	0x3e1e3a5d	0.15451951
52	0x3d87eced	0.06636987
53	0x3e3cf7ac	0.18453854
54	0xbd310973	-0.043221902
55	0x3e853735	0.26018682
56	0x3d822603	0.063549064
57	0xbe0f4885	-0.13992508
58	0x3e86355e	0.2621259
59	0x3e319e96	0.17345652
60	0x3d25a6c6	0.04044225
61	0x3e6ef487	0.23335467
62	0x3c3fcdba	0.011706764
63	0x3e846e4c	0.258654
64	0x3e45a583	0.19301419
65	0x3de351de	0.11099599
66	0x3e8135e9	0.25236443
67	0x3d852230	0.065006614
68	0x3e0a39e4	0.13498646
69	0x3e4892a0	0.19587183
70	0xbdf8bef4	-0.121457964
71	0x3e43a1f7	0.19104753
72	0x3dd34130	0.10315168
73	0xbd499b01	-0.04922009
74	0x3dc3f1ca	0.09567602
75	0xbda45b9f	-0.08025288
76	0x3e21596f	0.15756772
77	0x3dc98130	0.09839094
78	0xbd8c7922	-0.06859042
79	0xbccadf10	-0.024764568
80	0x3e4278dc	0.18991417
81	0x3d85fc07	0.06542211
82	0x3d060282	0.032717235
83	0x3e911973	0.2833973
84	0x3c23386d	0.009962183
85	0x3c5cc037	0.013473562
86	0x3e0b5806	0.13607797
87	0xbb0da7a6	-0.0021614819
88	0x3e82e7cb	0.2556747
89	0x3e769c64	0.24083096
90	0xbe17862d	-0.14797278
91	0xbe496b49	-0.19669832
92	0xbe0a39eb	-0.13498656
93	0xbe60baaa	-0.21946207
94	0xba85584a	-0.0010173407
95	0xbe5f1012	-0.21783474
96	0xbcf81a03	-0.03028584
97	0xbe7793ae	-0.24177429
98	0xbe0e10da	-0.13873616
99	0xbe31d8e9	-0.17367901
100	0x3a46bcb9	0.00075812225
101	0x3ea6e603	0.3259736
102	0x3e48ef13	0.1962245
103	0x3db68752	0.08912529
104	0x3cfccd24	0.030859537
105	0xbd7c2eda	-0.06156812
106	0xbdb19c49	-0.08672387
107	0x3e14435c	0.1447882
108	0x3dbe55a3	0.09293678
109	0x3cd03557	0.02541606
110	0xbdcea0d3	-0.100892685
111	0xbe90540a	-0.28189117
112	0xbe10064c	-0.14064902
113	0xbe2e3ede	-0.1701617
114	0xbda71e66	-0.08160095
115	0xbd0225a1	-0.031774167
116	0xbdfd3fcf	-0.12365686
117	0x3cd92ff4	0.026512124
118	0xbdeb2993	-0.11482539
119	0xbe00ea07	-0.12589274
120	0x3cd3af41	0.025840404
121	0xbd77b3f7	-0.060474362
122	0xbd2feff0	-0.04295343
123	0xbdacc23f	-0.08435487
124	0x3e1a9400	0.1509552
125	0x3e5cb0c4	0.21551806
126	0x3e5644d5	0.20924695
127	0x3e188591	0.14894702
128	0x3e76cd31	0.24101712
129	0x3df66bee	0.12032305
130	0x3e290dbd	0.16509147
131	0x3dadb31f	0.0848143
132	0x3d2e0b2f	0.042491134
133	0x3e301cae	0.1719844
134	0x3e702d95	0.23454888
135	0x3d0cfa53	0.034418415
136	0xbe0f4ebe	-0.13994882
137	0x3de440be	0.11145161
138	0x3d266602	0.040624626
139	0xbd6bb1d8	-0.057542652
140	0x3e6e4e66	0.23272094
141	0x3e76104d	0.24029656
142	0x3e750f97	0.23931728
143	0x3d249910	0.040185034
144	0x3e1ac433	0.15113907
145	0xbde33b93	-0.11095347
146	0xbd20db25	-0.039271493
147	0x3e632aec	0.22184342
148	0x3e511fec	0.20422333
149	0xbda692d4	-0.08133474
150	0xbdbed002	-0.09317018
151	0xbc5653b6	-0.013081482
152	0xbe86cb18	-0.26326823
153	0x3d4c74f9	0.04991624
154	0xbe7c57a9	-0.24642815
155	0xbe64a3e4	-0.22328144
156	0x3cf40549	0.029787676
157	0xbe3ea771	-0.18618561
158	0xbd56258a	-0.052281894
159	0xbe761e23	-0.24034934
160	0xbe0f55a2	-0.1399751
161	0xbe629e2c	-0.2213065
162	0xbdaf3c0f	-0.08556377
163	0xbe1199e7	-0.14218865
164	0x3db50eec	0.08840737
165	0xbd090495	-0.033451635
166	0xbd2b4e38	-0.041822642
167	0x3e315d15	0.17320664
168	0x3aa2af30	0.0012411829
169	0x3d5e5adb	0.054285865
170	0x3e8dc57d	0.27689734
171	0xbd138d24	-0.036023274
172	0x3e895de9	0.2682946
173	0xbcc8bc9e	-0.024504002
174	0x3e48260f	0.19545768
175	0x3e10bb1f	0.14133881
176	0x3e56f0a0	0.20990229
177	0x3dc23928	0.09483558
178	0x3d4c1768	0.04982701
179	0x3e5b9cd5	0.21446545
180	0x3e4f0e6f	0.2022035
181	0x3e7525f5	0.2394026
182	0x3e7d2637	0.24721609
183	0x3dd2e59e	0.10297702
184	0xbdd9324b	-0.10605296
185	0x3e124edf	0.142879
186	0x3e2abdd5	0.16673978
187	0x3e82525a	0.25453454
188	0x3e856fdb	0.260619
189	0x3e60a8b9	0.21939363
190	0x3e6588bd	0.22415443
191	0x3c98a576	0.018633585
192	0x3d33753a	0.043812968
193	0x3da571d7	0.08078354
194	0x3e030412	0.12794521
195	0x3def206e	0.11676107
196	0x3e13dd07	0.14439784
197	0x3e378b24	0.17924172
198	0xbd846a60	-0.06465602
199	0xbe522cc3	-0.20524888
200	0xbe3b625d	-0.18299241
201	0xbe57ddb5	-0.21080668
202	0x3a96a238	0.0011492437
203	0xbe8a5926	-0.2702114
204	0xbdc0f132	-0.09421004
205	0x3d1c64dc	0.038182124
206	0xbe802415	-0.25027528
207	0xbdf61a69	-0.12016756
208	0xbd70580a	-0.05867771
209	0x3de17406	0.11008458
210	0x3ccda076	0.025100928
211	0xbdd05ff6	-0.10174553
212	0x3dac4543	0.08411648
213	0x3db9a31a	0.09064312
214	0x3df54b1b	0.11977216
215	0x3e74a20e	0.23889944
216	0x3e3ee93e	0.18643662
217	0x3cb2d83b	0.021831622
218	0xbd6c8750	-0.05774623
219	0x3e8312bc	0.2560023
220	0xbc4effba	-0.012634212
221	0x3d9b169c	0.07572672
222	0x3cf31406	0.029672634
223	0x3c02ff74	0.007995475
224	0x3e472cb1	0.19450642
225	0x3cab827e	0.020936247
226	0xbe6e9e6e	-0.23302624
227	0xbe6b18d4	-0.2295869
228	0xbd8f159c	-0.069865435
229	0xbe3e6c8e	-0.18596098
230	0xbe4902c6	-0.19629964
231	0xbd7e52e1	-0.06209076
232	0xbd0f1028	-0.034927517
233	0xbe7ce9ae	-0.24698517
234	0xbe1bde34	-0.15221483
235	0xbccac185	-0.02475048
236	0x3e00d951	0.125829
237	0x3d93bd3f	0.0721383
238	0x3e85e092	0.26147896
239	0x3d8ecc43	0.069725536
240	0x3deed108	0.11660963
241	0x3e027e4c	0.12743491
242	0x3e0adae3	0.13560061
243	0x3aa35f7b	0.0012464368
244	0x3e8cf1e9	0.27528313
245	0x3de2f664	0.110821515
246	0xbd9e10e4	-0.077180654
247	0x3c9f6e2c	0.019461714
248	0xbd80c9d9	-0.062884994
249	0x3df7c77d	0.12098596
250	0x3deed440	0.11661577
251	0x3e686601	0.22695161
252	0xbe2ad2f3	-0.16682033
253	0xbd8e9dda	-0.069637015
254	0x3dd9456a	0.10608943
255	0x3d74480b	0.059639018

conv1.0.bias f4 [16]
0	0x3d40394f	0.046929654
1	0x3e13c12d	0.1442916
2	0xbd635adb	-0.05550657
3	0x3df4d5a2	0.1195481
4	0x3bc12771	0.0058945944
5	0x38b8425e	8.7861656e-05
6	0x3e63eaa0	0.22257471
7	0x3d3db285	0.046312828
8	0x3e0762a9	0.1322123
9	0x3dcc357f	0.09971141
10	0x3e7216f9	0.23641576
11	0x37bfeb7c	2.287863e-05
12	0x3978901d	0.0002370481
13	0x3e438aa2	0.19095853
14	0x3e3bf4d8	0.18355119
15	0x3d98c44f	0.07459318

conv2.0.weight f4 [32, 16, 3, 3]
0	0xbc945c4e	-0.01811042
1	0x3d1203db	0.035648208
2	0xbc8f1ead	-0.017470682
3	0x3e063dfc	0.13109583
4	0x3dc4554d	0.09586582
5	0x3c82c34a	0.015962262
6	0x3dd8839a	0.10571976
7	0x3e21590c	0.15756625
8	0x3e321f03	0.17394643
9	0x3e3f3cd9	0.18675555
10	0x3d3321de	0.04373347
11	0x3d1aedf5	0.03782459
12	0x3de2ca02	0.11073686
13	0x3d078c90	0.033093035
14	0x3e0f716f	0.14008115
15	0xbd34c601	-0.044134144
16	0x3e177dfc	0.14794153
17	0x3cf4df65	0.029891679
18	0xbcfad8be	-0.030620929
19	0xbdbdae5e	-0.092617735
20	0xbdde0452	-0.10840668
21	0x3e16aef8	0.14715183
22	0x3d10bda2	0.035337098
23	0xbdf6c8d1	-0.120500214
24	0x3d015da3	0.03158344
25	0x3dab7e94	0.08373752
26	0x3c98b069	0.018638806
27	0x3cc2118a	0.023690004
28	0x3d0bace4	0.03410043
29	0x3c4eaf53	0.012615043
30	0x3dfe7083	0.12423804
31	0xbd9c7699	-0.07639808
32	0xbd406021	-0.046966676
33	0x3dffed94	0.12496486
34	0x3dcd7c99	0.10033531
35	0x3c031e66	0.008002853
36	0x3d834771	0.06410111
37	0x3d39ca11	0.04535872
38	0x3df9dcc3	0.1220031
39	0x3e15ffaf	0.14648317
40	0xbd186d5d	-0.037213672
41	0x3e1b317a	0.15155593
42	0x3e15a14c	0.14612311
43	0x3ddcabdc	0.10774967
44	0x3c81e94f	0.01585832
45	0x3d3d1f9c	0.046172723
46	0xbd654721	-0.055976037
47	0xbe1867bc	-0.14883322
48	0x3d9d6d69	0.07686884
49	0x3cdd4eec	0.027015172
50	0xbc2083d6	-0.009797057
51	0x3e1d3d8a	0.15355507
52	0x3d59e06f	0.053192552
53	0x3d99ab86	0.075034186
54	0x3d82bebc	0.06384036
55	0x3df523c5	0.11969713
56	0x3cb83f8b	0.022491237
57	0x3d2a973f	0.041648146
58	0x3d880f8d	0.06643591
59	0x3da203f7	0.079109125
60	0xbd9c83e5	-0.076423444
61	0x3d2964bc	0.041355833
62	0x3cae0af0	0.02124545
63	0x3c3385a7	0.010957158
64	0xbe072c7c	-0.13200563
65	0xbe0fc402	-0.14039615
66	0x3d0f4c7a	0.034985043
67	0xbd890241	-0.06689883
68	0xbcb1e220	-0.02171427
69	0x3cce316d	0.025170052
70	0x3d7ceec9	0.06175116
71	0x3da8fba8	0.082511246
72	0xbd94e43b	-0.07270094
73	0x3c31c15d	0.010849324
74	0xbd78c085	-0.060730476
75	0x3d9dc275	0.07703105
76	0x3e10f4bb	0.14155857
77	0x3e21006e	0.1572282
78	0x3d02c3a2	0.03192485
79	0x3dd271d0	0.10275614
80	0x3e27ed6c	0.16399163
81	0xbd97bab8	-0.07408661
82	0xbdd54b2e	-0.1041473
83	0xbd5f463d	-0.054510344
84	0x3e166dbc	0.14690298
85	0x3ddca8e6	0.10774402
86	0x3d1556ef	0.03645986
87	0x3dc92a57	0.09822529
88	0x3d3bfcc6	0.04589536
89	0x3d67e066	0.056610487
90	0x3d8e29a7	0.06941538
91	0x3d99d6ed	0.07511697
92	0xbd833f5c	-0.06408569
93	0xbd578abb	-0.052622538
94	0x3cdefed1	0.027221115
95	0xbd683576	-0.05669161
96	0xbd4fd225	-0.05073752
97	0xbd35e558	-0.044408172
98	0xbd6032cd	-0.054735947
99	0x3dfcc60e	0.123424634
100	0xbc88aa23	-0.01668269
101	0xbe01fcbd	-0.12694068
102	0x3e1c1698	0.15242994
103	0x3ce78005	0.028259287
104	0x3df45961	0.1193111
105	0x3b9ec2cd	0.0048449994
106	0x3e290abf	0.16508006
107	0x3cdc82d2	0.026917849
108	0x3daf8a1a	0.08571263
109	0xbd5bc96d	-0.05365889
110	0xbd9958d3	-0.07487645
111	0x3c70af87	0.0146902865
112	0x3d9e68ba	0.07734819
113	0xbdd292a0	-0.10281873
114	0x3db86ce7	0.090051465
115	0x3e2fe394	0.17176658
116	0x3e0adb4f	0.13560222
117	0xbd62c7c2	-0.055366285
118	0xbe2b2892	-0.16714695
119	0xbe25b320	-0.16181612
120	0x3e065230	0.1311729
121	0xbcdf5781	-0.027263405
122	0xbd170325	-0.036868233
123	0x3cbf777c	0.023372404
124	0xbc844d1c	-0.01615005
125	0xbd029ef1	-0.03188986
126	0x3c87307a	0.016502608
127	0xbdd3fc73	-0.10350885
128	0x3d5f1c57	0.054470386
129	0xbda9aec8	-0.0828529
130	0xba820a29	-0.0009921241
131	0xbe190f4f	-0.14947246
132	0x3dbfd559	0.09366865
133	0x3d71fcf8	0.05907914
134	0xbd884197	-0.06653135
135	0x3e1c5687	0.15267383
136	0x3cb8f846	0.022579324
137	0xbd6c6677	-0.057714906
138	0x3e1de48c	0.15419215
139	0x3e03ff36	0.12890324
140	0x3e1c6a2b	0.15274875
141	0xbcb513db	-0.022104194
142	0x3e18d0c3	0.14923386
143	0x3e354d1b	0.17705195
144	0xbd220bfc	-0.03956221
145	0xbd2b35c4	-0.04179932
146	0x3d45156a	0.048116125
147	0x3c93f678	0.018061861
148	0x3d96b4d6	0.073587105
149	0x3dcefd66	0.10106926
150	0x3d3241fe	0.043519966
151	0x3b641c21	0.0034806805
152	0xbd6d126c	-0.057878897
153	0x3df07bf9	0.11742396
154	0x3df179f7	0.11790841
155	0xbc4c20a9	-0.012458959
156	0xbcf2f5db	-0.029658249
157	0xbc67409f	-0.014114528
158	0x3ddb4db6	0.107081816
159	0xbda678c9	-0.08128507
160	0xbcea012a	-0.028565008
161	0x3c6ce543	0.014458957
162	0xbcb480bc	-0.022034042
163	0xbd1d1781	-0.038352493
164	0x3d963cc8	0.07335812
165	0x3dc8d7dd	0.09806798
166	0x3d9e82ad	0.07739768
167	0x3d355e88	0.044279605
168	0x3dddb41d	0.108253695
169	0x3daaf5a6	0.08347635
170	0x3cabb0a6	0.020958256
171	0xbdbe77cb	-0.093001924
172	0xbdd1a677	-0.10236829
173	0x3cbf2b04	0.023335941
174	0x3d7c009a	0.06152401
175	0xbda04ad2	-0.07826771
176	0xbddd963a	-0.10819669
177	0x3dba1216	0.09085481
178	0x3de3dbdf	0.111259215
179	0x3dc7b0de	0.097505316
180	0xbd91b68d	-0.07114897
181	0xbdba3023	-0.090912126
182	0xbd7c5850	-0.06160766
183	0x3d3c086a	0.04590646
184	0x3dbd1b4a	0.092337206
185	0xbdec7796	-0.11546247
186	0x3cad42e8	0.021150067
187	0xbdffe334	-0.124945074
188	0xbd405f12	-0.046965666
189	0xbda53d87	-0.08068376
190	0xbc026591	-0.007958786
191	0x3d9e9c27	0.077446274
192	0x3dc612c9	0.09671552
193	0x3db11ebb	0.086484395
194	0x3d9b1bdf	0.07573675
195	0xbc96cfd3	-0.018409645
196	0x39f0d99c	0.000459385
197	0xbad35c5a	-0.0016125545
198	0xbd54d445	-0.05196025
199	0xbd0e137f	-0.03468656
200	0xbcd28ed9	-0.02570288
201	0xbd5c1e73	-0.053739976
202	0x3d3f81d6	0.04675468
203	0x3d6b5512	0.057454176
204	0x3d52bd44	0.05145003
205	0xbdc67aa7	-0.09691363
206	0xbd7694b8	-0.060200423
207	0xbdcb0f61	-0.09915043
208	0xbd4d1677	-0.050070252
209	0xbcc658c8	-0.024212256
210	0x3d35700c	0.04429631
211	0xbd5fc7bd	-0.054633845
212	0xbd384a69	-0.044992838
213	0x3d7dd95d	0.061974872
214	0x3dac7ca1	0.084222086
215	0x3de45b5b	0.11150237
216	0x3c985a87	0.018597854
217	0x3cfbbc43	0.030729419
218	0xbd0365b6	-0.03207942
219	0x3c2ce7ae	0.010553284
220	0x3d279809	0.040916476
221	0x3c745ce4	0.014914725
222	0x3cedcea2	0.029029194
223	0xbdb6108d	-0.088898756
224	0xbdc2d26b	-0.0951279
225	0x3cf18052	0.029480133
226	0x3c88952e	0.016672697
227	0xbce3fad7	-0.02782957
228	0xbd0bf106	-0.034165405
229	0xbcfec6b4	-0.031100608
230	0x3d6d2e52	0.057905503
231	0xbc0aabe0	-0.00846383
232	0xbb9ecdf3	-0.0048463284
233	0x3cb93267	0.022607042
234	0x3cc91ad3	0.024548924
235	0x3db14fc6	0.08657794
236	0x3d84aaec	0.06477913
237	0xbc8a602a	-0.016891558
238	0x3d44cb96	0.048045717
239	0x3c203289	0.0097776735
240	0x3ca6fff5	0.020385722
241	0x3d1d4a56	0.03840097
242	0xbdfea32c	-0.12433466
243	0x3d7fee60	0.06248319
244	0x3c4c1b7f	0.012457727
245	0x3c90f712	0.017695937
246	0x3de132fc	0.109960526
247	0x3cb5f767	0.022212697
248	0x3db1b39d	0.08676837
249	0xbcb36cb4	-0.02190242
250	0x3dfb97d5	0.12284819
251	0x3d924367	0.07141762
252	0x3cfce8c4	0.03087271
253	0xbd21e6ab	-0.039526623
254	0x3d0f54eb	0.034993093
255	0xbd20f4f7	-0.039296117

conv2.0.bias f4 [32]
0	0xbd859731	-0.06522978
1	0x3b295d62	0.0025843014
2	0x3d9c314d	0.07626591
3	0x3d83a603	0.064281486
4	0x3c32fee7	0.010925031
5	0x3d576587	0.05258706
6	0x3d40d7ce	0.047080807
7	0x3d850dcc	0.06496772
8	0x3d087b44	0.03332068
9	0xbd71d67d	-0.059042443
10	0x3d9af92c	0.07567057
11	0x3c3f34e5	0.011670326
12	0xbcce6f93	-0.025199687
13	0xbbffa0e7	-0.0078011635
14	0xbc882052	-0.016616974
15	0x3da9b8dc	0.08287212
16	0x3c104ff9	0.0088081295
17	0x3b82dcd2	0.003993609
18	0x3c644767	0.013933039
19	0x3d7cd312	0.06172473
20	0x3d98f73f	0.074690334
21	0x3d1e63ef	0.038669523
22	0xbc9c12d3	-0.019051945
23	0xbd507117	-0.0508891
24	0xbd365363	-0.044513118
25	0x3cff3e97	0.031157775
26	0x3d697872	0.05699963
27	0x3cb7981b	0.022411397
28	0xbd0b5917	-0.03402051
29	0x3d647179	0.05577228
30	0xbbb94c94	-0.005654881
31	0xbd85e17a	-0.06537147

res.weight f4 [10, 2048]
0	0x3ccd800c	0.025085472
1	0xbc93c6f0	-0.018039197
2	0x3cc3c78e	0.023898866
3	0xbc50f62a	-0.012754003
4	0x38c68a91	9.467186e-05
5	0xbce65cfc	-0.02812051
6	0xbc9fb313	-0.019494569
7	0xbc6d6479	-0.014489287
8	0xbb6fc083	-0.0036583252
9	0x3aa4fef2	0.0012588187
10	0xbb62daa6	-0.0034615188
11	0x3c64b7c2	0.013959827
12	0x3d1eaa88	0.03873685
13	0xb9ece3fd	-0.00045183292
14	0xbc987d39	-0.018614398
15	0xbca7d762	-0.020488445
16	0xba6553d1	-0.00087481464
17	0xbc772ae8	-0.015085913
18	0xbd1da5a3	-0.03848804
19	0xbc80fd6c	-0.015745841
20	0xbc6beff1	-0.014400468
21	0x3d206f8a	0.039168872
22	0x3b8aac01	0.0042319302
23	0xbc204c3d	-0.009783802
24	0xbc114b8b	-0.0088681085
25	0xbd247f48	-0.040160447
26	0xbd39263f	-0.04520249
27	0xbd9e4cb8	-0.07729477
28	0xbdcd1b57	-0.1001498
29	0xbd1c71ed	-0.038194586
30	0x3c3e8b6f	0.011629923
31	0x3c0b1307	0.008488423
32	0xbceeccfb	-0.029150477
33	0xbd9cbd24	-0.07653263
34	0xbd53a005	-0.05166628
35	0x3d038e51	0.032118145
36	0xbbd9af1e	-0.00664319
37	0xbd86f606	-0.06589894
38	0xbb677d81	-0.003532261
39	0x3cb7b30d	0.022424245
40	0xbc60f963	-0.013731333
41	0xbd98fc39	-0.07469983
42	0xbd036e07	-0.032087352
43	0x3d6123db	0.054965835
44	0x3c7213e6	0.014775252
45	0xbcee2053	-0.029068148
46	0xbcf1fa30	-0.029538244
47	0x3c79974a	0.015233824
48	0x398f8d44	0.00027380337
49	0x3ca8098d	0.020512367
50	0x3c36a0ae	0.011146707
51	0x3bfeb96b	0.0077735684
52	0x3ca85ac3	0.020551091
53	0xbd03cbc0	-0.032176733
54	0xbced970d	-0.02900269
55	0xbcbd0133	-0.02307186
56	0x3c7b104b	0.015323709
57	0xb9edf535	-0.00045386856
58	0x3bd353ee	0.006449214
59	0xbb34710c	-0.0027533202
60	0xbc1d83c9	-0.00961394
61	0xbc8d1070	-0.017219752
62	0xbc9627f7	-0.018329604
63	0xbc94d105	-0.018166075
64	0x3bbcee85	0.0057657384
65	0x3c9da53a	0.019243825
66	0xbb9b9d7b	-0.0047489977
67	0xbb1efe7f	-0.0024260578
68	0xbc1b3584	-0.009473208
69	0xbbdaef61	-0.006681368
70	0xbc2c211a	-0.010505939
71	0x3be663ec	0.0070309546
72	0x3c7a23b9	0.015267306
73	0xbb3be66c	-0.0028671278
74	0xbd090c59	-0.03345904
75	0x3bc00b9d	0.0058607594
76	0x3ca6de5a	0.020369697
77	0xb87904d5	-5.9370726e-05
78	0x3bb6648d	0.005566186
79	0xbac9fe5e	-0.001541089
80	0xbcaa43bc	-0.020784251
81	0x3b97f3d7	0.0046372223
82	0x39d31f2c	0.0004026828
83	0xbb939a78	-0.004504498
84	0x3c1ed7a4	0.009694967
85	0x3b2cca43	0.0026365675
86	0x3cc1932c	0.023629747
87	0xbc3d30c6	-0.011547273
88	0x3c2fd79d	0.010732559
89	0xbcb6a25d	-0.022294218
90	0x3c193bd1	0.00935264
91	0xbcf9aa3c	-0.030476682
92	0xbd7a6bb4	-0.06113787
93	0xbcb4265f	-0.021990953
94	0x3c965e45	0.018355498
95	0x3ce66c35	0.028127769
96	0x3c0b37a9	0.008497157
97	0x3c83e7b1	0.01610169
98	0x3ccc37d8	0.024928972
99	0xbc6903d0	-0.0142221
100	0xbc9a02af	-0.018800108
101	0xbc758be9	-0.01498697
102	0xbbfa991c	-0.0076476466
103	0x3bdde1bb	0.006771294
104	0x3c752691	0.014962808
105	0x3c3c67df	0.011499374
106	0xbc26b82b	-0.010175745
107	0x3d0861d0	0.033296406
108	0xbb912553	-0.004429498
109	0x3af8f33b	0.0018993387
110	0x3b97d1e7	0.0046331766
111	0xbc0f43ba	-0.008744175
112	0x3b466761	0.003027402
113	0x3bdf7743	0.006819637
114	0x3b68e218	0.0035535153
115	0x3ba0cc10	0.0049071386
116	0xbb46c0db	-0.0030327353
117	0xbcfee529	-0.031115131
118	0x3bfec6d1	0.0077751656
119	0x3c87d56d	0.016581262
120	0x3c45d983	0.012075785
121	0x3a56d0d4	0.000819457
122	0x3bccd737	0.0062512415
123	0xbd098cba	-0.033581473
124	0xbd467fcf	-0.04846173
125	0x3ad87bf4	0.0016516433
126	0x3c88da2e	0.016705599
127	0x3ca93eae	0.02065977
128	0xbc64ef18	-0.01397302
129	0xbcb282a6	-0.021790814
130	0xbca84b27	-0.020543648
131	0xbcbe50e1	-0.023231925
132	0xba1e4626	-0.00060376746
133	0x3b6c9678	0.0036100429
134	0xbc94a02d	-0.018142784
135	0xba6f92a9	-0.00091389805
136	0xb9ff456f	-0.00048689122
137	0x3b5e3074	0.0033903392
138	0xbca46b17	-0.020070596
139	0x3c74585c	0.014913645
140	0x3c8c3192	0.01711348
141	0x3cd3dc18	0.025861785
142	0xbc38806e	-0.011261089
143	0xbc4d49c6	-0.012529796
144	0xbca6f406	-0.020380031
145	0xbcbd891f	-0.023136673
146	0xbc8eac5a	-0.017416168
147	0xbcbbe0aa	-0.022934277
148	0xbc906e50	-0.017630726
149	0x3cc51cc2	0.024061564
150	0x3ca8c08f	0.020599632
151	0xbc1b2065	-0.009468173
152	0x3b93487a	0.004494724
153	0xbb981e5a	-0.00464229
154	0xbab9c2b5	-0.0014172407
155	0xbb5c9c52	-0.003366251
156	0xbd16bc70	-0.0368008
157	0xbcfa8037	-0.030578716
158	0x3cde08b1	0.027103754
159	0x3cb93a59	0.02261083
160	0xbcfb3c77	-0.03066848
161	0x3b995d8a	0.00468034
162	0x3b945101	0.004526258
163	0x3d560eac	0.052260086
164	0xbd4b0201	-0.049562458
165	0xbca443e4	-0.020051904
166	0x3ca5f436	0.02025805
167	0x3b547554	0.0032418566
168	0xbbabb0d4	-0.0052395854
169	0xbd020285	-0.031740684
170	0x3d111974	0.035424665
171	0x3c95b704	0.018275745
172	0xbc9fa2e4	-0.019486852
173	0xbc8ae83d	-0.016956443
174	0xbb410546	-0.0029452606
175	0xbb8d83e2	-0.0043187
176	0x3c0c0be5	0.008547758
177	0xbb49a5e0	-0.0030769035
178	0xbb9dab3d	-0.004811673
179	0x3bed90e8	0.00724994
180	0x3c1f6307	0.0097282
181	0xbcb1d59e	-0.021708306
182	0x3b53d594	0.0032323347
183	0x3c049dcf	0.008094265
184	0x3ba26e0d	0.0049569667
185	0xbc55b3cd	-0.013043356
186	0xbc394439	-0.011307769
187	0xbd17ac4c	-0.03702955
188	0xbcdc890f	-0.026920823
189	0xbd06344c	-0.032764718
190	0x3b85a171	0.004078083
191	0xbc062116	-0.008186599
192	0xbcab4bce	-0.02091017
193	0xbc9a7ae9	-0.018857436
194	0xbcb98d42	-0.022650365
195	0xbc0e3abd	-0.0086809965
196	0xbc35cdda	-0.011096442
197	0xbb894866	-0.004189539
198	0xbc0b6551	-0.008508042
199	0xbb17eabc	-0.0023180684
200	0xbcb2cb44	-0.02182544
201	0xbaa4cc59	-0.0012573107
202	0x3c3fc4f6	0.011704674
203	0x3b7f4b9e	0.0038954983
204	0x3cbfa72c	0.023395143
205	0xbd288051	-0.041137997
206	0xbc35d70b	-0.0110986335
207	0x3c7f8195	0.01559486
208	0xbcb3b506	-0.021936905
209	0xbc1d6750	-0.009607151
210	0xbc086b58	-0.008326374
211	0x3c091fc8	0.008369394
212	0xbb1498a0	-0.002267398
213	0xbbc0b7ba	-0.005881277
214	0xbc732544	-0.014840428
215	0x3ca91928	0.020641878
216	0xbc3d9fe4	-0.011573765
217	0xb9d55d0a	-0.00040695845
218	0x3d074958	0.03302893
219	0xbc5ffbe2	-0.013670893
220	0xbd473adc	-0.048640117
221	0x3d014135	0.031556327
222	0x3c01bdf4	0.0079188235
223	0x39862af2	0.00025590468
224	0x3bc82c8e	0.006108827
225	0xbaaebe90	-0.0013331939
226	0x3d319a22	0.043359883
227	0xbd15dc1c	-0.036586866
228	0x3cc8d470	0.02451536
229	0x3d35a75c	0.04434906
230	0xbbd83f19	-0.0065993187
231	0xbcd201ce	-0.025635626
232	0x3c507585	0.012723331
233	0xbb8b993c	-0.0042602103
234	0x3cdd0033	0.026977634
235	0xbd058f01	-0.032607082
236	0x3d19cf44	0.03755118
237	0x3b74018d	0.003723237
238	0xbc6f9d89	-0.014624962
239	0x3a5714de	0.00082047086
240	0x3c4dc1c6	0.012558406
241	0x3b8545d3	0.0040671616
242	0x3c218791	0.009858982
243	0xbcb83eb3	-0.022490835
244	0xbd2a6249	-0.04159764
245	0xbc884557	-0.016634626
246	0xbb9bab15	-0.004750619
247	0xbc1c6d38	-0.009547524
248	0xbcac4109	-0.021027105
249	0x3c3a8c44	0.011385981
250	0x3c02fc0c	0.007994663
251	0xbcd754fd	-0.026285643
252	0x3b96aa36	0.0045979274
253	0x3be9a75d	0.007130547
254	0x3b161103	0.0022898323
255	0x3ba80a88	0.0051282085

res.bias f4 [10]
0	0x3c4159d4	0.011801202
1	0x3cafdd52	0.021467838
2	0x3bcdee4c	0.0062845107
3	0x3c1595b1	0.0091299275
4	0x3bc127cb	0.0058946363
5	0xbca58ffc	-0.020210259
6	0x3c62c2ec	0.013840418
7	0xbbae57f1	-0.005320542
8	0xb8edbe23	-0.000113364564
9	0x3b48b9fa	0.0030628429
